Random Seed:  9182
# of training samples:  23527
Encoder(
  (fc1): Linear(in_features=2133, out_features=4096, bias=True)
  (fc3): Linear(in_features=4096, out_features=170, bias=True)
  (lrelu): LeakyReLU(0.2, inplace)
  (linear_means): Linear(in_features=170, out_features=85, bias=True)
  (linear_log_var): Linear(in_features=170, out_features=85, bias=True)
)
Generator(
  (fc1): Linear(in_features=170, out_features=4096, bias=True)
  (fc3): Linear(in_features=4096, out_features=2048, bias=True)
  (lrelu): LeakyReLU(0.2, inplace)
  (sigmoid): Sigmoid()
)
Discriminator_D1(
  (fc1): Linear(in_features=2133, out_features=4096, bias=True)
  (fc2): Linear(in_features=4096, out_features=1, bias=True)
  (lrelu): LeakyReLU(0.2, inplace)
)
Feedback(
  (fc1): Linear(in_features=4096, out_features=4096, bias=True)
  (fc2): Linear(in_features=4096, out_features=4096, bias=True)
  (lrelu): LeakyReLU(0.2, inplace)
)
AttDec(
  (fc1): Linear(in_features=2048, out_features=4096, bias=True)
  (fc3): Linear(in_features=4096, out_features=85, bias=True)
  (lrelu): LeakyReLU(0.2, inplace)
)
[0/120]  Loss_D: -15.7564 Loss_G: 4.9521, Wasserstein_dist:44.8421, vae_loss_seen:455.4210, gen_creative_loss:0.0014 GZSL: seen=0.7499, unseen=0.0087, h=0.0172 ZSL: unseen accuracy=0.2023
[1/120]  Loss_D: -32.8676 Loss_G: 5.0609, Wasserstein_dist:42.0216, vae_loss_seen:450.1369, gen_creative_loss:0.0014 GZSL: seen=0.7601, unseen=0.0047, h=0.0093 ZSL: unseen accuracy=0.3011
…
[118/120]  Loss_D: -9.4585 Loss_G: -0.5238, Wasserstein_dist:12.7209, vae_loss_seen:347.7692, gen_creative_loss:0.0014 GZSL: seen=0.7666, unseen=0.5429, h=0.6357 ZSL: unseen accuracy=0.6809
[119/120]  Loss_D: -9.5290 Loss_G: -0.4901, Wasserstein_dist:12.9216, vae_loss_seen:352.1587, gen_creative_loss:0.0014 GZSL: seen=0.7598, unseen=0.5605, h=0.6451 ZSL: unseen accuracy=0.6637
Dataset AWA2
the best ZSL unseen accuracy is 0.6978419855237007
Dataset AWA2
the best GZSL seen accuracy is 0.7492436542455854
the best GZSL unseen accuracy is 0.5849187585873034
the best GZSL H is 0.65696149719912
Random Seed:  3483
# of training samples:  7057
Encoder(
  (fc1): Linear(in_features=2360, out_features=4096, bias=True)
  (fc3): Linear(in_features=4096, out_features=624, bias=True)
  (lrelu): LeakyReLU(0.2, inplace)
  (linear_means): Linear(in_features=624, out_features=312, bias=True)
  (linear_log_var): Linear(in_features=624, out_features=312, bias=True)
)
Generator(
  (fc1): Linear(in_features=624, out_features=4096, bias=True)
  (fc3): Linear(in_features=4096, out_features=2048, bias=True)
  (lrelu): LeakyReLU(0.2, inplace)
  (sigmoid): Sigmoid()
)
Discriminator_D1(
  (fc1): Linear(in_features=2360, out_features=4096, bias=True)
  (fc2): Linear(in_features=4096, out_features=1, bias=True)
  (lrelu): LeakyReLU(0.2, inplace)
)
Feedback(
  (fc1): Linear(in_features=4096, out_features=4096, bias=True)
  (fc2): Linear(in_features=4096, out_features=4096, bias=True)
  (lrelu): LeakyReLU(0.2, inplace)
)
AttDec(
  (fc1): Linear(in_features=2048, out_features=4096, bias=True)
  (fc3): Linear(in_features=4096, out_features=312, bias=True)
  (lrelu): LeakyReLU(0.2, inplace)
)
[0/300]  Loss_D: -41.5975 Loss_G: 2.4160, Wasserstein_dist:50.5303, vae_loss_seen:462.6551, gen_creative_loss:0.0017 GZSL: seen=0.7464, unseen=0.0057, h=0.0114 ZSL: unseen accuracy=0.1921
[1/300]  Loss_D: -34.5104 Loss_G: 2.3589, Wasserstein_dist:50.4898, vae_loss_seen:451.0744, gen_creative_loss:0.0017 GZSL: seen=0.7447, unseen=0.0291, h=0.0560 ZSL: unseen accuracy=0.2213
…
