Random Seed:  9182
# of training samples:  23527
Encoder(
  (fc1): Linear(in_features=2133, out_features=4096, bias=True)
  (fc3): Linear(in_features=4096, out_features=170, bias=True)
  (lrelu): LeakyReLU(0.2, inplace)
  (linear_means): Linear(in_features=170, out_features=85, bias=True)
  (linear_log_var): Linear(in_features=170, out_features=85, bias=True)
)
Generator(
  (fc1): Linear(in_features=170, out_features=4096, bias=True)
  (fc3): Linear(in_features=4096, out_features=2048, bias=True)
  (lrelu): LeakyReLU(0.2, inplace)
  (sigmoid): Sigmoid()
)
Discriminator_D1(
  (fc1): Linear(in_features=2133, out_features=4096, bias=True)
  (fc2): Linear(in_features=4096, out_features=1, bias=True)
  (lrelu): LeakyReLU(0.2, inplace)
)
Feedback(
  (fc1): Linear(in_features=4096, out_features=4096, bias=True)
  (fc2): Linear(in_features=4096, out_features=4096, bias=True)
  (lrelu): LeakyReLU(0.2, inplace)
)
AttDec(
  (fc1): Linear(in_features=2048, out_features=4096, bias=True)
  (fc3): Linear(in_features=4096, out_features=85, bias=True)
  (lrelu): LeakyReLU(0.2, inplace)
)
[0/120]  Loss_D: -15.7197 Loss_G: 4.9449, Wasserstein_dist:44.8418, vae_loss_seen:455.4276, gen_creative_loss:0.1354 GZSL: seen=0.7493, unseen=0.0089, h=0.0177 ZSL: unseen accuracy=0.2032
[1/120]  Loss_D: -29.8945 Loss_G: 5.0557, Wasserstein_dist:42.0338, vae_loss_seen:450.2105, gen_creative_loss:0.1368 GZSL: seen=0.7601, unseen=0.0047, h=0.0093 ZSL: unseen accuracy=0.3014
…
[118/120]  Loss_D: -9.5464 Loss_G: -0.5225, Wasserstein_dist:12.7879, vae_loss_seen:347.9650, gen_creative_loss:0.1351 GZSL: seen=0.7663, unseen=0.5443, h=0.6365 ZSL: unseen accuracy=0.6794
[119/120]  Loss_D: -9.1851 Loss_G: -0.5056, Wasserstein_dist:12.8655, vae_loss_seen:352.2296, gen_creative_loss:0.1351 GZSL: seen=0.7607, unseen=0.5576, h=0.6435 ZSL: unseen accuracy=0.6592
Dataset AWA2
the best ZSL unseen accuracy is 0.6958647355437279
Dataset AWA2
the best GZSL seen accuracy is 0.74838467641761
the best GZSL unseen accuracy is 0.5833789752552703
the best GZSL H is 0.6556597112060122
Random Seed:  3483
# of training samples:  7057
Encoder(
  (fc1): Linear(in_features=2360, out_features=4096, bias=True)
  (fc3): Linear(in_features=4096, out_features=624, bias=True)
  (lrelu): LeakyReLU(0.2, inplace)
  (linear_means): Linear(in_features=624, out_features=312, bias=True)
  (linear_log_var): Linear(in_features=624, out_features=312, bias=True)
)
Generator(
  (fc1): Linear(in_features=624, out_features=4096, bias=True)
  (fc3): Linear(in_features=4096, out_features=2048, bias=True)
  (lrelu): LeakyReLU(0.2, inplace)
  (sigmoid): Sigmoid()
)
Discriminator_D1(
  (fc1): Linear(in_features=2360, out_features=4096, bias=True)
  (fc2): Linear(in_features=4096, out_features=1, bias=True)
  (lrelu): LeakyReLU(0.2, inplace)
)
Feedback(
  (fc1): Linear(in_features=4096, out_features=4096, bias=True)
  (fc2): Linear(in_features=4096, out_features=4096, bias=True)
  (lrelu): LeakyReLU(0.2, inplace)
)
AttDec(
  (fc1): Linear(in_features=2048, out_features=4096, bias=True)
  (fc3): Linear(in_features=4096, out_features=312, bias=True)
  (lrelu): LeakyReLU(0.2, inplace)
)
[0/300]  Loss_D: -41.5983 Loss_G: 2.4103, Wasserstein_dist:50.5267, vae_loss_seen:462.7994, gen_creative_loss:0.1741 GZSL: seen=0.7462, unseen=0.0054, h=0.0107 ZSL: unseen accuracy=0.1922
[1/300]  Loss_D: -42.0822 Loss_G: 2.4442, Wasserstein_dist:50.1338, vae_loss_seen:452.1123, gen_creative_loss:0.1693 GZSL: seen=0.7444, unseen=0.0302, h=0.0580 ZSL: unseen accuracy=0.2183
…
[298/300]  Loss_D: -5.8060 Loss_G: -2.8590, Wasserstein_dist:7.1628, vae_loss_seen:381.5188, gen_creative_loss:0.1690 GZSL: seen=0.6419, unseen=0.5171, h=0.5727 ZSL: unseen accuracy=0.6352
[299/300]  Loss_D: -5.3430 Loss_G: -2.5416, Wasserstein_dist:6.7689, vae_loss_seen:370.3434, gen_creative_loss:0.1689 GZSL: seen=0.6460, unseen=0.5162, h=0.5739 ZSL: unseen accuracy=0.6426
Dataset CUB
the best ZSL unseen accuracy is 0.6501184040307999
Dataset CUB
the best GZSL seen accuracy is 0.6274355013178541
the best GZSL unseen accuracy is 0.5429385459447168
the best GZSL H is 0.5821368297706007
Random Seed:  806
Random Seed:  4115
# of training samples:  10320
Encoder(
  (fc1): Linear(in_features=2150, out_features=4096, bias=True)
  (fc3): Linear(in_features=4096, out_features=204, bias=True)
  (lrelu): LeakyReLU(0.2, inplace)
  (linear_means): Linear(in_features=204, out_features=102, bias=True)
  (linear_log_var): Linear(in_features=204, out_features=102, bias=True)
)
Generator(
  (fc1): Linear(in_features=204, out_features=4096, bias=True)
  (fc3): Linear(in_features=4096, out_features=2048, bias=True)
  (lrelu): LeakyReLU(0.2, inplace)
  (sigmoid): Sigmoid()
)
Discriminator_D1(
  (fc1): Linear(in_features=2150, out_features=4096, bias=True)
  (fc2): Linear(in_features=4096, out_features=1, bias=True)
  (lrelu): LeakyReLU(0.2, inplace)
)
Feedback(
  (fc1): Linear(in_features=4096, out_features=4096, bias=True)
  (fc2): Linear(in_features=4096, out_features=4096, bias=True)
  (lrelu): LeakyReLU(0.2, inplace)
)
AttDec(
  (fc1): Linear(in_features=2048, out_features=4096, bias=True)
  (fc3): Linear(in_features=4096, out_features=102, bias=True)
  (lrelu): LeakyReLU(0.2, inplace)
)
[0/400]  Loss_D: -4.0913 Loss_G: 11.1317, Wasserstein_dist:5.3296, vae_loss_seen:10829951926272.0000, gen_creative_loss:0.0240 GZSL: seen=0.0000, unseen=0.0000, h=0.0000 ZSL: unseen accuracy=0.0208
[1/400]  Loss_D: -4.1354 Loss_G: 8.0515, Wasserstein_dist:5.3136, vae_loss_seen:10675309.0000, gen_creative_loss:0.0219 GZSL: seen=0.0000, unseen=0.0000, h=0.0000 ZSL: unseen accuracy=0.0257
…
