Random Seed:  9182
# of training samples:  23527
Encoder(
  (fc1): Linear(in_features=2133, out_features=4096, bias=True)
  (fc3): Linear(in_features=4096, out_features=170, bias=True)
  (lrelu): LeakyReLU(0.2, inplace)
  (linear_means): Linear(in_features=170, out_features=85, bias=True)
  (linear_log_var): Linear(in_features=170, out_features=85, bias=True)
)
Generator(
  (fc1): Linear(in_features=170, out_features=4096, bias=True)
  (fc3): Linear(in_features=4096, out_features=2048, bias=True)
  (lrelu): LeakyReLU(0.2, inplace)
  (sigmoid): Sigmoid()
)
Discriminator_D1(
  (fc1): Linear(in_features=2133, out_features=4096, bias=True)
  (fc2): Linear(in_features=4096, out_features=1, bias=True)
  (lrelu): LeakyReLU(0.2, inplace)
)
Feedback(
  (fc1): Linear(in_features=4096, out_features=4096, bias=True)
  (fc2): Linear(in_features=4096, out_features=4096, bias=True)
  (lrelu): LeakyReLU(0.2, inplace)
)
AttDec(
  (fc1): Linear(in_features=2048, out_features=4096, bias=True)
  (fc3): Linear(in_features=4096, out_features=85, bias=True)
  (lrelu): LeakyReLU(0.2, inplace)
)
[0/120]  Loss_D: -15.7210 Loss_G: 4.9442, Wasserstein_dist:44.8450, vae_loss_seen:455.3002, gen_creative_loss:0.0136 GZSL: seen=0.7496, unseen=0.0089, h=0.0177 ZSL: unseen accuracy=0.2033
[1/120]  Loss_D: -33.7254 Loss_G: 5.0717, Wasserstein_dist:42.3092, vae_loss_seen:450.2689, gen_creative_loss:0.0137 GZSL: seen=0.7599, unseen=0.0047, h=0.0093 ZSL: unseen accuracy=0.3014
…
[118/120]  Loss_D: -9.8924 Loss_G: -0.2787, Wasserstein_dist:12.8547, vae_loss_seen:350.3884, gen_creative_loss:0.0135 GZSL: seen=0.7656, unseen=0.5430, h=0.6354 ZSL: unseen accuracy=0.6806
[119/120]  Loss_D: -8.8537 Loss_G: -0.3186, Wasserstein_dist:12.8886, vae_loss_seen:354.2506, gen_creative_loss:0.0135 GZSL: seen=0.7613, unseen=0.5615, h=0.6463 ZSL: unseen accuracy=0.6627
Dataset AWA2
the best ZSL unseen accuracy is 0.6988788589835166
Dataset AWA2
the best GZSL seen accuracy is 0.7472132153182333
the best GZSL unseen accuracy is 0.5855072850532138
the best GZSL H is 0.656549938167717
Random Seed:  3483
# of training samples:  7057
Encoder(
  (fc1): Linear(in_features=2360, out_features=4096, bias=True)
  (fc3): Linear(in_features=4096, out_features=624, bias=True)
  (lrelu): LeakyReLU(0.2, inplace)
  (linear_means): Linear(in_features=624, out_features=312, bias=True)
  (linear_log_var): Linear(in_features=624, out_features=312, bias=True)
)
Generator(
  (fc1): Linear(in_features=624, out_features=4096, bias=True)
  (fc3): Linear(in_features=4096, out_features=2048, bias=True)
  (lrelu): LeakyReLU(0.2, inplace)
  (sigmoid): Sigmoid()
)
Discriminator_D1(
  (fc1): Linear(in_features=2360, out_features=4096, bias=True)
  (fc2): Linear(in_features=4096, out_features=1, bias=True)
  (lrelu): LeakyReLU(0.2, inplace)
)
Feedback(
  (fc1): Linear(in_features=4096, out_features=4096, bias=True)
  (fc2): Linear(in_features=4096, out_features=4096, bias=True)
  (lrelu): LeakyReLU(0.2, inplace)
)
AttDec(
  (fc1): Linear(in_features=2048, out_features=4096, bias=True)
  (fc3): Linear(in_features=4096, out_features=312, bias=True)
  (lrelu): LeakyReLU(0.2, inplace)
)
[0/300]  Loss_D: -41.6093 Loss_G: 2.4172, Wasserstein_dist:50.5330, vae_loss_seen:462.6904, gen_creative_loss:0.0175 GZSL: seen=0.7456, unseen=0.0057, h=0.0114 ZSL: unseen accuracy=0.1945
[1/300]  Loss_D: -42.0753 Loss_G: 2.4323, Wasserstein_dist:50.1209, vae_loss_seen:451.7915, gen_creative_loss:0.0169 GZSL: seen=0.7446, unseen=0.0284, h=0.0548 ZSL: unseen accuracy=0.2213
…
[298/300]  Loss_D: -5.6846 Loss_G: -2.9984, Wasserstein_dist:7.1884, vae_loss_seen:379.9691, gen_creative_loss:0.0169 GZSL: seen=0.6397, unseen=0.5169, h=0.5718 ZSL: unseen accuracy=0.6310
[299/300]  Loss_D: -5.3337 Loss_G: -2.6662, Wasserstein_dist:6.7509, vae_loss_seen:368.9948, gen_creative_loss:0.0169 GZSL: seen=0.6283, unseen=0.5268, h=0.5731 ZSL: unseen accuracy=0.6425
Dataset CUB
the best ZSL unseen accuracy is 0.6490534251928329
Dataset CUB
the best GZSL seen accuracy is 0.627652260593437
the best GZSL unseen accuracy is 0.5378195260517669
the best GZSL H is 0.5792738102899173
Random Seed:  806
Random Seed:  4115
# of training samples:  10320
Encoder(
  (fc1): Linear(in_features=2150, out_features=4096, bias=True)
  (fc3): Linear(in_features=4096, out_features=204, bias=True)
  (lrelu): LeakyReLU(0.2, inplace)
  (linear_means): Linear(in_features=204, out_features=102, bias=True)
  (linear_log_var): Linear(in_features=204, out_features=102, bias=True)
)
Generator(
  (fc1): Linear(in_features=204, out_features=4096, bias=True)
  (fc3): Linear(in_features=4096, out_features=2048, bias=True)
  (lrelu): LeakyReLU(0.2, inplace)
  (sigmoid): Sigmoid()
)
Discriminator_D1(
  (fc1): Linear(in_features=2150, out_features=4096, bias=True)
  (fc2): Linear(in_features=4096, out_features=1, bias=True)
  (lrelu): LeakyReLU(0.2, inplace)
)
Feedback(
  (fc1): Linear(in_features=4096, out_features=4096, bias=True)
  (fc2): Linear(in_features=4096, out_features=4096, bias=True)
  (lrelu): LeakyReLU(0.2, inplace)
)
AttDec(
  (fc1): Linear(in_features=2048, out_features=4096, bias=True)
  (fc3): Linear(in_features=4096, out_features=102, bias=True)
  (lrelu): LeakyReLU(0.2, inplace)
)
[0/400]  Loss_D: -3.0620 Loss_G: -0.9861, Wasserstein_dist:4.1221, vae_loss_seen:394.2994, gen_creative_loss:0.0205 GZSL: seen=0.3070, unseen=0.2778, h=0.2916 ZSL: unseen accuracy=0.4285
[1/400]  Loss_D: -3.0552 Loss_G: -1.3526, Wasserstein_dist:3.9811, vae_loss_seen:377.3832, gen_creative_loss:0.0206 GZSL: seen=0.3516, unseen=0.3361, h=0.3437 ZSL: unseen accuracy=0.5132
…
