Loading module for Anaconda
Anaconda 2019.10 is now loaded
AWA
Random Seed:  9182
# of training samples:  23527
Encoder(
  (fc1): Linear(in_features=2133, out_features=4096)
  (fc3): Linear(in_features=4096, out_features=170)
  (lrelu): LeakyReLU(0.2, inplace)
  (linear_means): Linear(in_features=170, out_features=85)
  (linear_log_var): Linear(in_features=170, out_features=85)
)
Generator(
  (fc1): Linear(in_features=170, out_features=4096)
  (fc3): Linear(in_features=4096, out_features=2048)
  (lrelu): LeakyReLU(0.2, inplace)
  (sigmoid): Sigmoid()
)
Discriminator_D1(
  (fc1): Linear(in_features=2133, out_features=4096)
  (fc2): Linear(in_features=4096, out_features=1)
  (lrelu): LeakyReLU(0.2, inplace)
)
Feedback(
  (fc1): Linear(in_features=4096, out_features=4096)
  (fc2): Linear(in_features=4096, out_features=4096)
  (lrelu): LeakyReLU(0.2, inplace)
)
AttDec(
  (fc1): Linear(in_features=2048, out_features=4096)
  (fc3): Linear(in_features=4096, out_features=85)
  (lrelu): LeakyReLU(0.2, inplace)
)
[0/120]  Loss_D: 4.9656 Loss_G: 4.6229, Wasserstein_dist:40.5504, vae_loss_seen:441.8322 GZSL: seen=0.7461, unseen=0.0177, h=0.0345 ZSL: unseen accuracy=0.2859
[1/120]  Loss_D: -33.7918 Loss_G: 5.2361, Wasserstein_dist:39.9731, vae_loss_seen:437.5007 GZSL: seen=0.7609, unseen=0.0110, h=0.0217 ZSL: unseen accuracy=0.4090
[2/120]  Loss_D: -39.8301 Loss_G: 6.1680, Wasserstein_dist:46.7689, vae_loss_seen:438.7209 GZSL: seen=0.7593, unseen=0.0095, h=0.0189 ZSL: unseen accuracy=0.3915
…
