Loading module for Anaconda
Anaconda 2019.10 is now loaded
CUB
Random Seed:  3483
# of training samples:  7057
Encoder(
  (fc1): Linear(in_features=2360, out_features=4096)
  (fc3): Linear(in_features=4096, out_features=624)
  (lrelu): LeakyReLU(0.2, inplace)
  (linear_means): Linear(in_features=624, out_features=312)
  (linear_log_var): Linear(in_features=624, out_features=312)
)
Generator(
  (fc1): Linear(in_features=624, out_features=4096)
  (fc3): Linear(in_features=4096, out_features=2048)
  (lrelu): LeakyReLU(0.2, inplace)
  (sigmoid): Sigmoid()
)
Discriminator_D1(
  (fc1): Linear(in_features=2360, out_features=4096)
  (fc2): Linear(in_features=4096, out_features=1)
  (lrelu): LeakyReLU(0.2, inplace)
)
Feedback(
  (fc1): Linear(in_features=4096, out_features=4096)
  (fc2): Linear(in_features=4096, out_features=4096)
  (lrelu): LeakyReLU(0.2, inplace)
)
AttDec(
  (fc1): Linear(in_features=2048, out_features=4096)
  (fc3): Linear(in_features=4096, out_features=312)
  (lrelu): LeakyReLU(0.2, inplace)
)
[0/300]  Loss_D: -35.6477 Loss_G: 2.6181, Wasserstein_dist:49.6689, vae_loss_seen:464.4492 GZSL: seen=0.7426, unseen=0.0074, h=0.0146 ZSL: unseen accuracy=0.1802
[1/300]  Loss_D: -34.1304 Loss_G: 2.3141, Wasserstein_dist:50.7063, vae_loss_seen:450.7532 GZSL: seen=0.7447, unseen=0.0365, h=0.0696 ZSL: unseen accuracy=0.2224
[2/300]  Loss_D: -32.6059 Loss_G: 1.6390, Wasserstein_dist:48.1593, vae_loss_seen:440.9821 GZSL: seen=0.7419, unseen=0.0532, h=0.0993 ZSL: unseen accuracy=0.2813
…
