Loading module for Anaconda
Anaconda 2019.10 is now loaded
SUN
Random Seed:  4115
# of training samples:  10320
Encoder(
  (fc1): Linear(in_features=2150, out_features=4096)
  (fc3): Linear(in_features=4096, out_features=204)
  (lrelu): LeakyReLU(0.2, inplace)
  (linear_means): Linear(in_features=204, out_features=102)
  (linear_log_var): Linear(in_features=204, out_features=102)
)
Generator(
  (fc1): Linear(in_features=204, out_features=4096)
  (fc3): Linear(in_features=4096, out_features=2048)
  (lrelu): LeakyReLU(0.2, inplace)
  (sigmoid): Sigmoid()
)
Discriminator_D1(
  (fc1): Linear(in_features=2150, out_features=4096)
  (fc2): Linear(in_features=4096, out_features=1)
  (lrelu): LeakyReLU(0.2, inplace)
)
Feedback(
  (fc1): Linear(in_features=4096, out_features=4096)
  (fc2): Linear(in_features=4096, out_features=4096)
  (lrelu): LeakyReLU(0.2, inplace)
)
AttDec(
  (fc1): Linear(in_features=2048, out_features=4096)
  (fc3): Linear(in_features=4096, out_features=102)
  (lrelu): LeakyReLU(0.2, inplace)
)
[0/400]  Loss_D: -2.8059 Loss_G: -0.7142, Wasserstein_dist:3.8300, vae_loss_seen:385.8005 GZSL: seen=0.3155, unseen=0.2729, h=0.2927 ZSL: unseen accuracy=0.4257
[1/400]  Loss_D: -2.9178 Loss_G: -0.9505, Wasserstein_dist:3.8095, vae_loss_seen:374.3630 GZSL: seen=0.3434, unseen=0.3410, h=0.3422 ZSL: unseen accuracy=0.5160
[2/400]  Loss_D: -2.9301 Loss_G: -0.5509, Wasserstein_dist:3.7759, vae_loss_seen:357.7658 GZSL: seen=0.3643, unseen=0.3556, h=0.3599 ZSL: unseen accuracy=0.5479
…
