Loading module for Anaconda
Anaconda 2019.10 is now loaded
AWA
Random Seed:  9182
# of training samples:  23527
Encoder(
  (fc1): Linear(in_features=2133, out_features=4096)
  (fc3): Linear(in_features=4096, out_features=170)
  (lrelu): LeakyReLU(0.2, inplace)
  (linear_means): Linear(in_features=170, out_features=85)
  (linear_log_var): Linear(in_features=170, out_features=85)
)
Generator(
  (fc1): Linear(in_features=170, out_features=4096)
  (fc3): Linear(in_features=4096, out_features=2048)
  (lrelu): LeakyReLU(0.2, inplace)
  (sigmoid): Sigmoid()
)
Discriminator_D1(
  (fc1): Linear(in_features=2133, out_features=4096)
  (fc2): Linear(in_features=4096, out_features=1)
  (lrelu): LeakyReLU(0.2, inplace)
)
Feedback(
  (fc1): Linear(in_features=4096, out_features=4096)
  (fc2): Linear(in_features=4096, out_features=4096)
  (lrelu): LeakyReLU(0.2, inplace)
)
AttDec(
  (fc1): Linear(in_features=2048, out_features=4096)
  (fc3): Linear(in_features=4096, out_features=85)
  (lrelu): LeakyReLU(0.2, inplace)
)
[0/120]  Loss_D: 5.7216 Loss_G: 4.5824, Wasserstein_dist:39.5443, vae_loss_seen:441.3030 GZSL: seen=0.7457, unseen=0.0170, h=0.0333 ZSL: unseen accuracy=0.2906
[1/120]  Loss_D: -25.8264 Loss_G: 5.2320, Wasserstein_dist:39.3845, vae_loss_seen:437.2851 GZSL: seen=0.7616, unseen=0.0131, h=0.0257 ZSL: unseen accuracy=0.3958
[2/120]  Loss_D: -41.6454 Loss_G: 6.1036, Wasserstein_dist:46.1130, vae_loss_seen:437.8191 GZSL: seen=0.7570, unseen=0.0097, h=0.0192 ZSL: unseen accuracy=0.3821
…
