Random Seed:  9182
# of training samples:  23527
Encoder(
  (fc1): Linear(in_features=2133, out_features=4096, bias=True)
  (fc3): Linear(in_features=4096, out_features=170, bias=True)
  (lrelu): LeakyReLU(0.2, inplace)
  (linear_means): Linear(in_features=170, out_features=85, bias=True)
  (linear_log_var): Linear(in_features=170, out_features=85, bias=True)
)
Generator(
  (fc1): Linear(in_features=170, out_features=4096, bias=True)
  (fc3): Linear(in_features=4096, out_features=2048, bias=True)
  (lrelu): LeakyReLU(0.2, inplace)
  (sigmoid): Sigmoid()
)
Discriminator_D1(
  (fc1): Linear(in_features=2133, out_features=4096, bias=True)
  (fc2): Linear(in_features=4096, out_features=1, bias=True)
  (lrelu): LeakyReLU(0.2, inplace)
)
Feedback(
  (fc1): Linear(in_features=4096, out_features=4096, bias=True)
  (fc2): Linear(in_features=4096, out_features=4096, bias=True)
  (lrelu): LeakyReLU(0.2, inplace)
)
AttDec(
  (fc1): Linear(in_features=2048, out_features=4096, bias=True)
  (fc3): Linear(in_features=4096, out_features=85, bias=True)
  (lrelu): LeakyReLU(0.2, inplace)
)
[0/120]  Loss_D: 4.9656 Loss_G: 4.6229, Wasserstein_dist:40.5504, vae_loss_seen:441.8322 GZSL: seen=0.7461, unseen=0.0177, h=0.0345 ZSL: unseen accuracy=0.2859
[1/120]  Loss_D: -33.7918 Loss_G: 5.2361, Wasserstein_dist:39.9731, vae_loss_seen:437.5007 GZSL: seen=0.7609, unseen=0.0110, h=0.0217 ZSL: unseen accuracy=0.4090
…
[118/120]  Loss_D: -9.5694 Loss_G: -0.5901, Wasserstein_dist:13.2655, vae_loss_seen:342.9447 GZSL: seen=0.7713, unseen=0.5297, h=0.6281 ZSL: unseen accuracy=0.6656
[119/120]  Loss_D: -10.6857 Loss_G: -0.5308, Wasserstein_dist:14.0467, vae_loss_seen:348.4824 GZSL: seen=0.7588, unseen=0.5846, h=0.6604 ZSL: unseen accuracy=0.6733
Dataset AWA2
the best ZSL unseen accuracy is 0.7122263565659523
Dataset AWA2
the best GZSL seen accuracy is 0.7548310927989855
the best GZSL unseen accuracy is 0.5956016190749334
the best GZSL H is 0.6658289851040742
Random Seed:  3483
# of training samples:  7057
Encoder(
  (fc1): Linear(in_features=2360, out_features=4096, bias=True)
  (fc3): Linear(in_features=4096, out_features=624, bias=True)
  (lrelu): LeakyReLU(0.2, inplace)
  (linear_means): Linear(in_features=624, out_features=312, bias=True)
  (linear_log_var): Linear(in_features=624, out_features=312, bias=True)
)
Generator(
  (fc1): Linear(in_features=624, out_features=4096, bias=True)
  (fc3): Linear(in_features=4096, out_features=2048, bias=True)
  (lrelu): LeakyReLU(0.2, inplace)
  (sigmoid): Sigmoid()
)
Discriminator_D1(
  (fc1): Linear(in_features=2360, out_features=4096, bias=True)
  (fc2): Linear(in_features=4096, out_features=1, bias=True)
  (lrelu): LeakyReLU(0.2, inplace)
)
Feedback(
  (fc1): Linear(in_features=4096, out_features=4096, bias=True)
  (fc2): Linear(in_features=4096, out_features=4096, bias=True)
  (lrelu): LeakyReLU(0.2, inplace)
)
AttDec(
  (fc1): Linear(in_features=2048, out_features=4096, bias=True)
  (fc3): Linear(in_features=4096, out_features=312, bias=True)
  (lrelu): LeakyReLU(0.2, inplace)
)
[0/300]  Loss_D: -35.6474 Loss_G: 2.6252, Wasserstein_dist:49.6768, vae_loss_seen:464.5182 GZSL: seen=0.7431, unseen=0.0070, h=0.0140 ZSL: unseen accuracy=0.1776
[1/300]  Loss_D: -38.9919 Loss_G: 2.3478, Wasserstein_dist:48.6274, vae_loss_seen:451.0616 GZSL: seen=0.7448, unseen=0.0359, h=0.0684 ZSL: unseen accuracy=0.2238
…
[298/300]  Loss_D: -5.0360 Loss_G: -3.2013, Wasserstein_dist:6.5079, vae_loss_seen:371.7305 GZSL: seen=0.6280, unseen=0.5267, h=0.5729 ZSL: unseen accuracy=0.6380
[299/300]  Loss_D: -4.3305 Loss_G: -3.1628, Wasserstein_dist:6.1802, vae_loss_seen:369.1154 GZSL: seen=0.5978, unseen=0.5455, h=0.5704 ZSL: unseen accuracy=0.6393
Dataset CUB
the best ZSL unseen accuracy is 0.6503569227457047
Dataset CUB
the best GZSL seen accuracy is 0.6230424771307125
the best GZSL unseen accuracy is 0.5442250960567502
the best GZSL H is 0.5809727945032912
Random Seed:  806
Random Seed:  4115
# of training samples:  10320
Encoder(
  (fc1): Linear(in_features=2150, out_features=4096, bias=True)
  (fc3): Linear(in_features=4096, out_features=204, bias=True)
  (lrelu): LeakyReLU(0.2, inplace)
  (linear_means): Linear(in_features=204, out_features=102, bias=True)
  (linear_log_var): Linear(in_features=204, out_features=102, bias=True)
)
Generator(
  (fc1): Linear(in_features=204, out_features=4096, bias=True)
  (fc3): Linear(in_features=4096, out_features=2048, bias=True)
  (lrelu): LeakyReLU(0.2, inplace)
  (sigmoid): Sigmoid()
)
Discriminator_D1(
  (fc1): Linear(in_features=2150, out_features=4096, bias=True)
  (fc2): Linear(in_features=4096, out_features=1, bias=True)
  (lrelu): LeakyReLU(0.2, inplace)
)
Feedback(
  (fc1): Linear(in_features=4096, out_features=4096, bias=True)
  (fc2): Linear(in_features=4096, out_features=4096, bias=True)
  (lrelu): LeakyReLU(0.2, inplace)
)
AttDec(
  (fc1): Linear(in_features=2048, out_features=4096, bias=True)
  (fc3): Linear(in_features=4096, out_features=102, bias=True)
  (lrelu): LeakyReLU(0.2, inplace)
)
[0/400]  Loss_D: -2.8080 Loss_G: -0.6966, Wasserstein_dist:3.8191, vae_loss_seen:385.8416 GZSL: seen=0.3147, unseen=0.2708, h=0.2911 ZSL: unseen accuracy=0.4243
[1/400]  Loss_D: -2.9092 Loss_G: -0.9473, Wasserstein_dist:3.8076, vae_loss_seen:374.3489 GZSL: seen=0.3446, unseen=0.3417, h=0.3431 ZSL: unseen accuracy=0.5181
…
